Medical Chatbot [END 2 END] [NLP]/models/data.pth (torch, 29541 bytes, 6 tensors)

l1.weight f4 [8, 413]
0	0xbde75fa1	-0.11297537
1	0x3efe74cb	0.4969848
2	0x3e820b12	0.2539907
3	0x3eac1e89	0.33617046
4	0x3e6da979	0.2320918
5	0xbdcf5f6a	-0.10125621
6	0xbeecc206	-0.46241778
7	0x3e325855	0.17416508
8	0xbe462789	-0.19351019
9	0xbd3e5fba	-0.04647801
10	0xbd12fa02	-0.035882957
11	0x3e10d6bd	0.14144416
12	0xbe30f9d9	-0.1728281
13	0xbd1d9a05	-0.038476963
14	0xbdec7d63	-0.11547353
15	0x3dcd8a37	0.10036128
16	0x3e91d39e	0.28481764
17	0x3ecd1865	0.40057674
18	0xbea81415	-0.3282782
19	0xbddb6007	-0.10711675
20	0xbd8af796	-0.067855045
21	0xbd9a8e61	-0.07546688
22	0x3e096310	0.13416696
23	0xbf28413e	-0.6572455
24	0x3def7591	0.11692346
25	0x3caaa3bb	0.020830026
26	0xbe0b1cbb	-0.13585179
27	0x3d8a09ad	0.06740127
28	0x3b810337	0.003937151
29	0x3d9ee1f7	0.07757943
30	0x3e4362b0	0.19080615
31	0xbd5dfcf9	-0.05419633
32	0xbe05e8d3	-0.13077097
33	0xbd518c8b	-0.051159423
34	0x3e9d9c96	0.30783528
35	0x3e1a1d81	0.15050317
36	0x3cd26775	0.025684098
37	0x3e915184	0.28382504
38	0x3e780a46	0.24222669
39	0xbd7d7f78	-0.06188914
40	0x3e8bad17	0.27280495
41	0x3e3b2616	0.18276247
42	0x3e142aee	0.14469501
43	0x3df88125	0.12134007
44	0x3e8b666c	0.2722658
45	0x3eaadaf7	0.33370182
46	0x3ea1aee2	0.31578737
47	0x3d8f7f22	0.070066705
48	0x3e476e33	0.19475631
49	0xbe575d34	-0.21031648
50	0xbeadfc23	-0.33981428
51	0x3e657351	0.22407271
52	0x3b21aac5	0.0024668437
53	0xbe338d6d	-0.17534418
54	0x3dcfee4e	0.10152875
55	0xbcf44d00	-0.029821873
56	0x3e771c04	0.24131781
57	0x3e3aed29	0.18254532
58	0x3ebde874	0.3709141
59	0xbd923fde	-0.07141088
60	0xbe4b5d6b	-0.19859855
61	0x3f04fa3a	0.51944315
62	0x3e100c1a	0.14067116
63	0xbdc8c573	-0.098032854
64	0xbdea5c6b	-0.114434086
65	0xbdb69052	-0.08914246
66	0x3e2204e8	0.15822184
67	0xbe19e33e	-0.15028092
68	0x3e4d0b1a	0.20023766
69	0xbeab5aad	-0.33467618
70	0xbd58bae1	-0.052912597
71	0xbe135711	-0.14388682
72	0xbe6aedb1	-0.22942235
73	0xbea57f66	-0.3232376
74	0x3e78fcc2	0.2431517
75	0x3dda4c1a	0.106590465
76	0x3d9b3f15	0.07580391
77	0x3e4047f3	0.18777446
78	0xbd9814fe	-0.07425879
79	0xbecc6c87	-0.3992655
80	0xbdd6c3ee	-0.10486589
81	0xbd76f446	-0.06029155
82	0x3cbe1dcd	0.02320757
83	0x3e885425	0.26626697
84	0xbef40789	-0.47662
85	0xbe841fcf	-0.25805518
86	0xbe1236f6	-0.14278778
87	0x3cfd8013	0.03094486
88	0x3d0811a5	0.033219952
89	0xbcd3c6d1	-0.025851639
90	0xbcc7002b	-0.024292072
91	0xbe7cddb1	-0.24693944
92	0x3e8b9fc1	0.2727032
93	0xbe0e59d2	-0.13901451
94	0xbe28867c	-0.16457552
95	0xbe9dd671	-0.30827668
96	0x3e694591	0.22780444
97	0x3d9cf732	0.07664336
98	0x3e2ca553	0.16859941
99	0xbea7141f	-0.3263254
100	0x3dc70946	0.09718566
101	0x3de88d09	0.11355025
102	0x3dc0aef4	0.0940837
103	0x3da8555d	0.08219407
104	0x3e54c351	0.20777632
105	0xbcf799fc	-0.030224793
106	0x3dd97c71	0.106194384
107	0xbd3d443a	-0.046207644
108	0xbeb99152	-0.36243683
109	0xbd844173	-0.06457796
110	0xbda5afd1	-0.08090175
111	0x3d40c18a	0.047059573
112	0xbcd1155f	-0.025522886
113	0xbdfdd93d	-0.123949505
114	0x3dc0d4bf	0.09415578
115	0xbc9d8b17	-0.019231362
116	0x3e419996	0.18906245
117	0x3d3d7211	0.04625136
118	0x3bb952ea	0.005655636
119	0xbec3e67f	-0.38261792
120	0xbda84a84	-0.08217338
121	0x3d430d29	0.047619972
122	0xbe6eb180	-0.23309898
123	0x3e4505eb	0.19240539
124	0x3cd316ef	0.025767772
125	0x3e94d567	0.29069063
126	0x3e5ca028	0.2154547
127	0x3eafee50	0.34361506
128	0x3e64101d	0.22271772
129	0xbe82aa4e	-0.25520557
130	0xbd01716e	-0.031602316
131	0x3e6b71be	0.22992608
132	0xbe97675f	-0.29571053
133	0x3e11c113	0.14233808
134	0xbe5b4086	-0.21411332
135	0xbd03cb91	-0.032176558
136	0x3e051685	0.12996872
137	0x3e8b5424	0.27212632
138	0x3d5bcc97	0.05366191
139	0x3e5d3f06	0.21606073
140	0x3d32d1a5	0.043656964
141	0x3ddd1e74	0.10796824
142	0x3dbcc3f1	0.0921706
143	0x3e319a69	0.17344059
144	0xbeba5b93	-0.3639799
145	0x3d2e434b	0.042544644
146	0xbf14968e	-0.5804223
147	0x3e48a500	0.19594193
148	0x3e5ae685	0.21376999
149	0x3d6b00e4	0.057373896
150	0x3dad4aa0	0.08461499
151	0x3d82b20f	0.06381618
152	0x3e5404e6	0.20704994
153	0xbcc2567c	-0.02372288
154	0xbe9686d4	-0.2939974
155	0x3e5460f2	0.20740107
156	0x3dbe476f	0.092909686
157	0xbed21595	-0.4103209
158	0x3ce06864	0.027393527
159	0x3ca7c589	0.020479934
160	0x3d6cbc12	0.057796545
161	0x3eed441c	0.46341026
162	0x3f633e75	0.88767177
163	0xbe503112	-0.20331219
164	0x3ef2c7f0	0.47418165
165	0xbd8c9d1f	-0.06865906
166	0x3e62ff16	0.2216762
167	0xbdd419d2	-0.10356487
168	0x3e4c08fa	0.199253
169	0x3dd88880	0.1057291
170	0xbedb1e32	-0.42796475
171	0xbf00dd8c	-0.50338054
172	0x3f7f22fd	0.9966276
173	0xbe1a152f	-0.15047143
174	0xbbfd33be	-0.0077271154
175	0x3d8794fc	0.066202134
176	0x3e923977	0.28559467
177	0x3de2b0b9	0.110688634
178	0x3da23df7	0.07921975
179	0x3dc1be26	0.09460096
180	0x3dcadb2c	0.09905085
181	0xbf1506cc	-0.58213496
182	0xbe818e0a	-0.2530368
183	0xbd447610	-0.047964156
184	0xbdbdc5a7	-0.09266215
185	0x3dcc49b2	0.09974994
186	0xbee15c56	-0.4401576
187	0xbe2e2a5f	-0.17008351
188	0xbe06204b	-0.13098256
189	0xbe9af252	-0.30263
190	0xbf16dc9e	-0.58930385
191	0x3f1044a2	0.56354725
192	0x3e8959bf	0.26826283
193	0xbbe1ba67	-0.006888676
194	0x3cd5674a	0.026050229
195	0x3e63086d	0.22171183
196	0x3cb51e0a	0.02210905
197	0xbee3bba2	-0.4447909
198	0x3d21de64	0.03951873
199	0xbd6fc626	-0.05853858
200	0x3e62f4da	0.22163716
201	0xbe7401ff	-0.23828886
202	0x3e1d713a	0.15375224
203	0x3f3602cc	0.7109802
204	0x3d0e74ad	0.03477924
205	0xbd866b52	-0.065634385
206	0x3e95db18	0.29268718
207	0x3d0a1031	0.033706848
208	0x3e720a5e	0.23636767
209	0x3d4ee118	0.050507635
210	0xbce17824	-0.027523108
211	0xbd5bc5dc	-0.05365549
212	0xbe81b867	-0.25336
213	0xbe663722	-0.22481969
214	0x3dc824c7	0.0977264
215	0x3d474e3d	0.0486586
216	0x3e962d56	0.29331464
217	0xbdf21268	-0.11819917
218	0x3ee241cb	0.4419082
219	0x3e9ad801	0.30242923
220	0x3e65fbd5	0.22459348
221	0xbdf8f303	-0.12155726
222	0xbe05f7b7	-0.13082777
223	0xbeb2fdd1	-0.34959272
224	0xbe915400	-0.283844
225	0xbe7a4530	-0.24440455
226	0xbc0aadf8	-0.008464329
227	0x3e9605b3	0.29301223
228	0x3e7af40f	0.24507163
229	0xbeab8a4e	-0.33503956
230	0x3e94c474	0.29056132
231	0xbe9a24c1	-0.30106166
232	0x3f89d331	1.0767576
233	0xbc9ccbe9	-0.0191402
234	0x3d82c5d7	0.06385391
235	0x3cda885f	0.026676355
236	0x3ec9c4e0	0.39408016
237	0xbd8e359d	-0.0694382
238	0xbdcddf7f	-0.10052394
239	0xbd58c642	-0.05292345
240	0xbe3b65a5	-0.18300493
241	0x3dea5557	0.114420585
242	0x3e1441db	0.14478247
243	0x3e419d98	0.18907773
244	0x3e287d85	0.16454132
245	0x3e4c463b	0.19948666
246	0x3d351152	0.04420597
247	0x3dd4bd3c	0.10387656
248	0x3df9fb1c	0.122060984
249	0x3dfffefc	0.12499806
250	0xbcafa59c	-0.021441273
251	0xbe0c2965	-0.13687666
252	0xbd3fdbc9	-0.046840463
253	0xbe8095a5	-0.2511417
254	0x3dac1ef2	0.0840434
255	0x3e27e6a7	0.1639658

l1.bias f4 [8]
0	0x3f5c9404	0.86163354
1	0x3fbec0bc	1.4902568
2	0x3f8b7b46	1.0896995
3	0x3ff27dc8	1.8944635
4	0x4034850a	2.82062
5	0x3f924c81	1.1429597
6	0x3fba2c35	1.4544741
7	0x402fc8e7	2.746637

l2.weight f4 [8, 8]
0	0x3e8e30c7	0.2777159
1	0xbb87d441	-0.0041451757
2	0xbe2c3a40	-0.16819096
3	0x3d8f8336	0.070074484
4	0x3e589a09	0.2115251
5	0x3ecee74c	0.4041084
6	0x3e884b26	0.26619834
7	0xbf56af49	-0.83861214
8	0x3e8cf08b	0.2752727
9	0x3ce53c02	0.027982716
10	0x3e61aa19	0.22037543
11	0xbe13d919	-0.14438285
12	0xbda68c17	-0.08132189
13	0x3de5234d	0.11188374
14	0x3e0cf94c	0.13766974
15	0xbec2f754	-0.3807932
16	0x3e1a0eb3	0.1504467
17	0x3f6414be	0.8909415
18	0xc06e1b20	-3.7204056
19	0x40f49b2d	7.6439424
20	0x40b38883	5.610414
21	0xbfd332de	-1.6499898
22	0xc0406e22	-3.006722
23	0xc047c5cb	-3.1214473
24	0xbf84ebfe	-1.0384519
25	0x3fcbd3bd	1.5923992
26	0x3fea3b42	1.8299334
27	0x3f4b3207	0.7937321
28	0xbf53ad49	-0.8268629
29	0x3f8ebd71	1.1151563
30	0x3f5b562e	0.85678375
31	0x3eee7715	0.46575227
32	0x408fe706	4.496951
33	0xc059d928	-3.4038792
34	0xbfa0dfd4	-1.2568307
35	0xc04aae13	-3.1668746
36	0x40839b9e	4.1127462
37	0x3f82f4eb	1.0230993
38	0x40d27e99	6.577954
39	0xbdec280a	-0.11531074
40	0x40026bd4	2.0378313
41	0x3f99077b	1.1955408
42	0xc0647abd	-3.5699914
43	0xc06046c9	-3.5043204
44	0x3fae43a5	1.3614393
45	0xbf0c9b2b	-0.5492427
46	0xc0a1c042	-5.054719
47	0x410e0384	8.875858
48	0x3e90e8c5	0.2830259
49	0xbda6e201	-0.081485756
50	0x3e95e4ab	0.29276022
51	0xbead6070	-0.33862638
52	0x3e3ffeac	0.18749493
53	0x3e9dedcc	0.30845487
54	0xbeb0b900	-0.34516144
55	0xbe4b51a3	-0.1985536
56	0x3f4c1ead	0.7973431
57	0xc082f64a	-4.0925646
58	0xbff22165	-1.8916441
59	0x3f8ffe07	1.1249398
60	0x4072a69a	3.7914186
61	0xc09e1b8f	-4.940864
62	0xc029ffec	-2.6562452
63	0x4030a7dd	2.7602456

l2.bias f4 [8]
0	0xbec2f334	-0.38076174
1	0xbe27f9f2	-0.1640394
2	0x3fcca3b4	1.5987458
3	0x3e8a95a3	0.2706729
4	0xbea813c9	-0.32827595
5	0x3fdd62ab	1.7295736
6	0xbe8b0f02	-0.27159888
7	0xbf2c9e79	-0.6742931

l3.weight f4 [131, 8]
0	0xbd9e7b71	-0.07738388
1	0x3e747fc5	0.23876865
2	0xbf48d8f4	-0.78456044
3	0xbdf12706	-0.11775021
4	0x3fa48f93	1.2856315
5	0x3d11c6d8	0.035590023
6	0xbbc2435c	-0.00592844
7	0x3dcdfe48	0.10058266
8	0x3e43af7f	0.19109915
9	0x3de1aff0	0.110198855
10	0xbf111a4e	-0.5668076
11	0x3ca087a6	0.019595932
12	0x3ec0e036	0.3767106
13	0x3ef4654e	0.4773354
14	0xbe2c4729	-0.1682402
15	0x3fc5025b	1.5391344
16	0xbe090908	-0.13382351
17	0xbe360b98	-0.1777786
18	0x3ed5fb13	0.41793117
19	0x3e1e0d9b	0.15434878
20	0xbf8cbf62	-1.0995905
21	0x3f981d77	1.1883992
22	0x3e98b64d	0.29826584
23	0xbdd3e4bc	-0.10346362
24	0xbe1312f0	-0.14362693
25	0xbe41ec61	-0.18937828
26	0xbfeec374	-1.8653398
27	0xbee21e01	-0.44163516
28	0x3fc9c53f	1.576332
29	0x3d844473	0.06458368
30	0xbe1bac4c	-0.15202445
31	0xbed75300	-0.4205551
32	0x3e4dbfb2	0.20092657
33	0xbe885f7c	-0.2663535
34	0xbf77419e	-0.965845
35	0x3ebc90a2	0.36829096
36	0xbfc23539	-1.5172492
37	0x3fe5251f	1.7901953
38	0x3e4c166a	0.19930425
39	0xbeda1cf3	-0.42600212
40	0xbda95fe0	-0.0827024
41	0xbda632d3	-0.08115163
42	0x3f901490	1.1256275
43	0x3d5c3cb6	0.053768836
44	0x3e0731f5	0.13202651
45	0xbdbb53b7	-0.09146827
46	0xbe9c0767	-0.30474398
47	0xbfa46637	-1.2843693
48	0xbd66a9b1	-0.056314174
49	0xbe971812	-0.29510552
50	0x3e0670fd	0.13129039
51	0xbea94758	-0.33062243
52	0x3f8bed69	1.0931827
53	0xbcabb4fb	-0.020960322
54	0xbe99a9d7	-0.3001239
55	0xbf4f6d0c	-0.8102577
56	0xbdb33457	-0.087502174
57	0xbcc4089c	-0.023929887
58	0xbe97236e	-0.29519218
59	0xbebb088a	-0.36529952
60	0x3fa75840	1.3073807
61	0xbf1fa2be	-0.623577
62	0xbd53685c	-0.051613197
63	0x3ee94505	0.4556047
64	0xbe5b7bb7	-0.21433912
65	0x3e940b8a	0.28915054
66	0xbfa1457f	-1.2599334
67	0xbe115306	-0.14191827
68	0x3fe5a1fe	1.7940061
69	0xbfa4640e	-1.2843034
70	0x3e6d55fa	0.23177329
71	0x3e1aa3df	0.15101574
72	0xbe3c7f76	-0.18407997
73	0x3e40c4d6	0.18825087
74	0x3eb246e4	0.3481971
75	0xbdd7897f	-0.10524272
76	0x3f8b8789	1.0900737
77	0xbffe051a	-1.9845307
78	0xbe0c43f5	-0.13697799
79	0x3f3bc14a	0.7334181
80	0x3d39c173	0.045350503
81	0xbda62c5a	-0.08113928
82	0x3f3de8d9	0.7418342
83	0xbe340ead	-0.17583723
84	0xbf84c298	-1.0371885
85	0x3f5769af	0.84145635
86	0x3d8ee5b3	0.069774054
87	0x3eb8ea74	0.36116374
88	0xbd3d75c7	-0.0462549
89	0xbe21471e	-0.15749785
90	0xbe9a9c33	-0.30197296
91	0xbe4dd974	-0.20102483
92	0xbf1079eb	-0.5643603
93	0x3fbc4267	1.4707764
94	0x3e5898a6	0.21151981
95	0x3e3a608f	0.18200897
96	0xbb0b6d93	-0.0021275028
97	0x3ea30828	0.3184216
98	0xbef217d9	-0.4728382
99	0x3e66ed8b	0.22551553
100	0x3f7a69d4	0.9781773
101	0x3ebd3839	0.36956957
102	0x3df79d0a	0.120905
103	0xbf27f4ff	-0.6560821
104	0xbe3a7523	-0.18208747
105	0x3e07ae53	0.13250093
106	0xbf0579ff	-0.52139276
107	0x3f911aa5	1.1336256
108	0xbeac3f66	-0.3364212
109	0x3d948090	0.07251084
110	0x3e98e805	0.29864517
111	0x3d1f46d0	0.03888589
112	0x3d7be868	0.061500937
113	0x3e7e3bb4	0.24827462
114	0x3fc1c566	1.5138366
115	0xbdd88c1d	-0.105735995
116	0x3ca5f571	0.020258637
117	0xbf5c0c33	-0.85956115
118	0xbcc266ca	-0.023730654
119	0xbf9a413c	-1.2051158
120	0xbd89ae84	-0.06722739
121	0xbde2ed7a	-0.11080451
122	0xbf9e8563	-1.2384456
123	0x3db1042d	0.086433746
124	0x3f02b86a	0.51062644
125	0x3f41151c	0.75422835
126	0xbe95cf83	-0.2925988
127	0x3f9c35eb	1.2203954
128	0xbed3f475	-0.41397443
129	0x3e4751c2	0.19464782
130	0x3cdd35eb	0.02700325
131	0x3e9987f0	0.29986525
132	0x3f9e0538	1.2345343
133	0xbfe2bec2	-1.7714465
134	0xbe31a9b8	-0.17349899
135	0xbea9f87d	-0.33197394
136	0x3e479e2a	0.19493929
137	0xbda3d6c1	-0.079999454
138	0xbfbd609c	-1.4795108
139	0xbf3108c1	-0.6915398
140	0x3f84448b	1.0333418
141	0x3f80da88	1.006669
142	0x3cf701dc	0.030152254
143	0xbf4a6163	-0.7905485
144	0xbe575687	-0.21029101
145	0xbdf8d781	-0.12150479
146	0x3e4b218e	0.19837019
147	0xbe8b108b	-0.2716106
148	0x3f433475	0.7625192
149	0x3e835c43	0.25656328
150	0x3e4e5a96	0.20151743
151	0xbe315dff	-0.17321013
152	0xbd636e6c	-0.05552523
153	0x3e712db1	0.23552586
154	0xbf9a8abf	-1.2073592
155	0x3e7959dc	0.24350685
156	0xbe8552fd	-0.26039878
157	0x3fcae403	1.5850834
158	0xbd9f4b88	-0.07778078
159	0xbf3e5d79	-0.7436138
160	0x3ddaaf78	0.10677999
161	0xbd365b22	-0.044520505
162	0xbff93f8a	-1.9472516
163	0x3db703ea	0.089362934
164	0xbffacf61	-1.9594537
165	0x3ff5ccee	1.9203165
166	0x3dcedb33	0.10100403
167	0x3ea6af73	0.32555732
168	0x3e2a9f4c	0.1666233
169	0xbea4ff7e	-0.32226175
170	0xbf7c8a27	-0.98648304
171	0x3c913046	0.017723214
172	0x3f81f7c7	1.0153741
173	0x3f2f7644	0.68539834
174	0xbe40bc9c	-0.18821949
175	0xbeffb96d	-0.49946156
176	0xbb9f10a9	-0.004854281
177	0x3dda6a1d	0.10664771
178	0x3f5071c6	0.81423604
179	0x3f124d28	0.5714898
180	0x3eb70221	0.35743812
181	0xbf09c522	-0.53816426
182	0xbe07ffc6	-0.13281164
183	0x3e3efbec	0.18650788
184	0x3e7c4828	0.246369
185	0xbdb8264e	-0.08991681
186	0xbfbbfe1c	-1.4686923
187	0x3f540df4	0.8283379
188	0x3f974ee8	1.1820955
189	0xbf27d226	-0.65555036
190	0x3c79760f	0.015225901
191	0x3e2976ab	0.16549174
192	0xbe52c645	-0.20583446
193	0x3d627da9	0.05529562
194	0xc0010e3e	-2.0164943
195	0xbe756f90	-0.23968339
196	0x3d15ff1d	0.036620248
197	0x3fd5421a	1.6660798
198	0xbe04f058	-0.12982309
199	0xbf3b3a0e	-0.7313546
200	0xbe642046	-0.22277936
201	0x3e7702f9	0.24122228
202	0xc0047cad	-2.0701096
203	0x3e87ef35	0.26549688
204	0x3fddfb4b	1.7342314
205	0xbffa452b	-1.9552358
206	0xbdbad9cc	-0.09123573
207	0xbccd98bf	-0.02509725
208	0x3e8acba1	0.27108482
209	0xbe9a9312	-0.3019033
210	0xbe2dbf4b	-0.16967504
211	0xbe1e5837	-0.15463339
212	0xbf7713a5	-0.9651435
213	0x3f8f5c5b	1.120006
214	0xba4e044c	-0.00078589167
215	0x3f98187b	1.1882471
216	0x3e064937	0.13113867
217	0xbe48bd19	-0.19603385
218	0xbf76eca4	-0.96454835
219	0x3f4e89b9	0.806789
220	0x3f345850	0.70447254
221	0x3eef1157	0.46692917
222	0xbe898fcf	-0.2686753
223	0xbdf2a542	-0.11847927
224	0x3e4f23fd	0.20228572
225	0xbe59aa79	-0.21256436
226	0xbf69f0bf	-0.91382974
227	0xbe12cd6a	-0.14336172
228	0xbf451f4c	-0.7700088
229	0x3fe0b093	1.7553886
230	0xbe702c09	-0.23454298
231	0xbd0ed30e	-0.034869246
232	0x3e89a541	0.2688389
233	0x3e59e9b5	0.21280558
234	0xbea1a53d	-0.3157138
235	0x3e335a67	0.17514955
236	0x3f00cf35	0.5031617
237	0x3f6456d7	0.8919501
238	0xbe8bd5d1	-0.27311566
239	0xbf19aa24	-0.6002524
240	0xbe0abb49	-0.13548006
241	0xbd925e7c	-0.07146928
242	0x3fe5eb07	1.796235
243	0xbe355288	-0.17707264
244	0xbf1aea16	-0.60513437
245	0xbf4fe8a5	-0.8121436
246	0xbe8b6823	-0.27227888
247	0xbf9f5dc7	-1.2450494
248	0x3e73b452	0.23799255
249	0x3e807daf	0.2509589
250	0xbf28f1d4	-0.65994
251	0xbecf7fe0	-0.40527248
252	0x3f0be82a	0.5465113
253	0x3fa0beb2	1.2558196
254	0x3e9e30f4	0.30896723
255	0xbf55a92b	-0.83461255

l3.bias f4 [131]
0	0xbf4fcd59	-0.8117271
1	0xbf6b837c	-0.91997504
2	0x3e8d78a3	0.276311
3	0xbe639539	-0.22224893
4	0x3f0e7976	0.55654085
5	0x3ef24d7b	0.47324738
6	0xbf1b4096	-0.60645425
7	0xbe9bfc9b	-0.3046616
8	0x3f43a2d8	0.76420355
9	0xbc1ae450	-0.009453848
10	0xbf574e02	-0.84103405
11	0xbf4fc953	-0.8116657
12	0x3f197e75	0.59958583
13	0x403722fd	2.8615105
14	0x3f6137e1	0.8797589
15	0xbf64038e	-0.89067924
16	0x3fb617b6	1.4225986
17	0xbf3db2a0	-0.74100685
18	0xbf2054d3	-0.6262943
19	0x3dc2881b	0.09498616
20	0xbc88bacd	-0.016690636
21	0x3e3f2edf	0.18670224
22	0x3f5be369	0.85893875
23	0x3fdcc00b	1.7246107
24	0xbeca4f63	-0.39513692
25	0x3f3b6b60	0.73210716
26	0xbf4828c7	-0.7818722
27	0x3eef771f	0.4677057
28	0xbedceecd	-0.4315094
29	0x3e303a7a	0.17209807
30	0xbe25cb8c	-0.16190928
31	0x3e666d2f	0.22502588
32	0x3fa33dc1	1.2753221
33	0xbf02a687	-0.5103535
34	0x3ef1d932	0.4723602
35	0xbfb7cbed	-1.4359108
36	0x3d4e1ac0	0.05031848
37	0x3fdb1d90	1.7118397
38	0x3fab9ead	1.3407799
39	0x3f1ac8cc	0.6046264
40	0xbe6facfc	-0.23405832
41	0x3ecdab5d	0.40169802
42	0xbd10b343	-0.035327207
43	0xbf05cc5b	-0.52264947
44	0x3e0d9d9f	0.13829659
45	0xbed9e754	-0.42559302
46	0xbf17d658	-0.5931144
47	0x3dce38d0	0.1006943
48	0x3eceda59	0.4040096
49	0x3d438142	0.04773069
50	0xbf71b5dc	-0.9441812
51	0xbf09adbe	-0.53780735
52	0xbfa1d481	-1.2642976
53	0xbd3e1a27	-0.04641166
54	0xbf3d9570	-0.7405615
55	0xbf040fb5	-0.5158647
56	0xbf821d69	-1.0165225
57	0xbf57ec2c	-0.84344745
58	0x3fabd756	1.342509
59	0x3f3755b2	0.71615136
60	0x400d2e18	2.2059383
61	0x3fbae7b9	1.4601966
62	0x3f5c9bac	0.86175036
63	0xbddc6a7f	-0.107625
64	0xbdecd344	-0.11563733
65	0xbf10c6f3	-0.5655357
66	0x3f8ee689	1.1164104
67	0xbf913d80	-1.1346893
68	0xbe793036	-0.24334797
69	0x3f8e830c	1.1133742
70	0xbd7cc930	-0.061715305
71	0x3f82592d	1.0183464
72	0xbeffadbf	-0.49937245
73	0xbf23f0d9	-0.6403938
74	0xbed7451c	-0.42044914
75	0xbf4cae5c	-0.7995355
76	0xbe710065	-0.23535307
77	0xbf4b2e54	-0.79367566
78	0xbf3601a9	-0.71096283
79	0x3c729076	0.01480495
80	0x3e678fdf	0.22613476
81	0xbf3a57ec	-0.7279041
82	0xbf930e11	-1.1488668
83	0xbef8a1ff	-0.48561093
84	0xbecc9d97	-0.39963982
85	0x3dc19a03	0.094532035
86	0xbf0e737d	-0.5564497
87	0xbecd887e	-0.40143198
88	0x3fe6d11d	1.8032566
89	0xbf8927f6	-1.071532
90	0xbf0f4fd8	-0.55981207
91	0xbfa82531	-1.313635
92	0x3f9c405f	1.2207144
93	0xbf14d2c4	-0.581341
94	0xbf8add97	-1.0848874
95	0xbeb9adbe	-0.36265367
96	0x3ed9cbba	0.42538244
97	0x3e3dcb58	0.185346
98	0xbed04abc	-0.40682018
99	0xbe037aaf	-0.12839769
100	0xbe26050c	-0.16212863
101	0x3fa6ec35	1.3040835
102	0xbf9282be	-1.1446149
103	0x3f643a61	0.8915158
104	0xbeb2ab95	-0.34896532
105	0xbe40857d	-0.18800922
106	0xbe96b8ea	-0.29437953
107	0xbf371468	-0.7151551
108	0xbf145779	-0.5794597
109	0x3f86af37	1.0522221
110	0xbf8fa78e	-1.1223009
111	0xbf705dc0	-0.9389305
112	0xbd835b99	-0.06413955
113	0xbf5f2008	-0.8715825
114	0xbf15d7c8	-0.5853238
115	0xbf25c50b	-0.6475379
116	0xbf9eb510	-1.2399006
117	0xbec2627d	-0.37965766
118	0x3e752727	0.23940717
119	0x3fac615d	1.3467213
120	0x3f40f510	0.75373936
121	0x3f1cd413	0.612611
122	0xbf1bff4f	-0.60936445
123	0xbf0341f0	-0.5127249
124	0x3f8f4336	1.1192386
125	0xbeccc2eb	-0.3999246
126	0x3f852bae	1.0403955
127	0xbed5a784	-0.41729367
128	0x3eb75eb2	0.35814434
129	0xbe982b01	-0.2972031
130	0x3f5c91af	0.86159796
